backendModels/trained_models/digit_LinearModel_0.95.pth (torch, 104067 bytes, 4 tensors)

weight f4 [32, 784]
00000000: 715c e1bc 93fe 873a aa64 b93c 4e68 4a3c
00000010: 4e40 7abc 8cc8 e5bc 3174 fcbc 05f1 633c
00000020: 7ad7 cebc ce06 4cbc aa82 393c 383b dfbb
00000030: a87f a2bb 46a2 eabb 4eac c4bc fca8 cb3c
00000040: 6a1c 9c3c ad4e 003d 3728 413b c343 a1bc
00000050: d312 d3bc 278a d7bc 1b74 0bbd 7e1b b13c
00000060: c4d7 0dbd 43ab c8bc 4a04 093a dc08 28ba
00000070: 9319 02bd 4e84 0bbc 25e0 b8bc 13a4 173c
00000080: 4c19 bd3b 3eed 073c 9828 ef3c de41 cabc
00000090: f41d 8c3c 0bd2 d6bc 8122 11bb 13e6 bebc
000000a0: 8116 c6bc 6855 d13c 9f33 af3b cbde 9c3b
000000b0: 48f5 593c 7e1e 523b 5492 903a ffcd 69bb
000000c0: 7b5b bf3c 8bad 87bc 3f7a 0ebd fcb1 0b3d
000000d0: 07a3 b03c 75df bbbc 456d 79bc aee2 0d3c
000000e0: 7530 0f3d a023 81bc fb87 21bc e108 703c
000000f0: 8156 d63b 322a 0a3d f5f5 8abc dbbe 0abd
00000100: 7628 afbc 8069 1fbb 4728 e7bb 82c2 f6bc
00000110: 0a2e e6bc fc36 41bd 6334 beba 41eb 02bd
00000120: f5bd 95bc 88dd 3ebd 5a0b c3bc 2700 abbc
00000130: 7d3e 98bb f482 63bb 43c3 323c 84f6 e63c
00000140: c9c1 6dbc 136b 073d dc76 853c 134d e33c
00000150: 25ad 573a 7533 abbc 89f2 6d3c 67fc 083d
00000160: af06 043c 8303 6f3c ee63 693b 9f89 913b
00000170: df21 473c 4eb6 4abd a672 d4bc f45f cdbc
00000180: 3905 35bd 9ec3 efbd ea4e 81bd 3356 afbd
00000190: d059 d7bd 849b 85bd a228 adbc 51bf 40bc
000001a0: 4079 68bb da7a 893c fbf1 c53c cca1 02bc
000001b0: 4293 7cbb 8361 863c 71cd 613c 6e94 d43b
000001c0: 930c 5a3a 3129 9a3b a7be d03c 9cef d4bb
000001d0: dcd8 d4bc 3b1a 8cbc 8977 913c ddc1 51bb
000001e0: dc79 75bd 0b15 82bd 681f 38bd 35f4 acbd
000001f0: 6ebf bcbd 25e0 56bd 3ceb 03bd 7afc 35bd
00000200: 0dc8 0cbd bec6 5abd 42c8 85bd 0601 6bbc
00000210: 4f56 5dbc 55c8 043d d200 2b3d 1f05 5e3d
00000220: 3d4c 9abc 8ea7 8cbc 6610 503b 93d0 e93c
00000230: b04b 8b3c 8a53 743c 7b6e d9bc 451f c03c
00000240: be91 8fbc 02e1 09bd f26b 69bb 7bd7 b33b
00000250: 525c dbbc 2a81 8fbd bb78 a6bd 5e5d 96bd
00000260: 68a7 b2bc bc6a 88bd f99e d9bb ab52 f2bc
00000270: 60b1 10bd a8c5 05bc cdc3 be3c 8b28 f73c
00000280: 1f91 823d cf5c 283d 2539 533d fff7 863c
00000290: ba92 aebb 0293 043c a57f 9bbc d2f8 d238
000002a0: 5c4c 083d dd2e 833c 4141 1cbc a5a1 fcbc
000002b0: e957 d2bc c8d6 a43c f104 97bc c589 583a
000002c0: 976b 8bbd 913d c1bd f03c 81bd 2cd4 adbd
000002d0: 4b7a f3bc 3fa2 80bd 680a 8cbd 0fb9 38bb
000002e0: 78c8 83bc df2f 38bd 5971 5ebc 9b9b 883c
000002f0: 591f aa3d 1aa2 873d 80d5 933d 0488 983d
00000300: 8824 7d3d d77f b7bc c3ce 903a d589 483c
00000310: b8f8 7ebc 5a5b 89bc e3c2 f0bc 2055 3abc
00000320: 2277 a43c d702 ef3b f97e 04bd 350f e4bc
00000330: 3a7f 8cbd 3491 36bd f60b 5fbc c194 9ebd
00000340: ce88 c9bd cb98 19bb e25c 45bd 000e bfbb
00000350: f1a0 083d 3d6e 423d c4f5 433d 216c 0a3d
00000360: 6a67 f83b 827b 953d 61d5 b13d e5b2 da3d
00000370: f051 8b3d d958 2d3d 4cdc fe3b 66f6 ce3c
00000380: 0b75 37bc 1a51 bebc 5ea3 843b 9903 99bc
00000390: 9e64 ad3b 4aab 14bd 7295 57bc 8766 b4bc
000003a0: 2a4f dbbd 4c9e 0abd 4b7e 76bd d584 03bd
000003b0: 78fe a33c 1665 923d f5f3 703d 0a07 833d
000003c0: e66a b83d 9e92 a83d f0f6 353d d69d 333d
000003d0: 2c23 013c cf0c 8f3a 2fb7 33bc 1490 7b3d
000003e0: 2947 ac3c 3393 0ebc b8b9 c13c a309 49bc
000003f0: e51c 0c3d 6100 5e3c 8fc1 09bd ac60 11bc
-0.0275099 0.0010375552 0.022631008 0.01235397 -0.0152741205 -0.02804973 -0.030817123 0.013912444
-0.025249232 -0.012452794 0.011322657 -0.0068124793 -0.0049590655 -0.007160458 -0.024007943 0.024860851
0.019056518 0.03132503 0.0029473433 -0.019685632 -0.025765812 -0.026310993 -0.034046274 0.021619555
-0.0346296 -0.024495726 0.00052267744 -0.00064100116 -0.03176267 -0.008515431 -0.022567818 0.009255427
0.005770838 0.008296309 0.029194161 -0.024689611 0.017104127 -0.026223203 -0.002214581 -0.023303067
-0.024180653 0.02555342 0.00534673 0.004787301 0.0133031085 0.0032061632 0.0011029937 -0.0035675762
0.023359051 -0.016562244 -0.03478455 0.034105286 0.021562112 -0.022933701 -0.015223806 0.008660002
0.03495832 -0.015764058 -0.00985908 0.014650554 0.006541074 0.033731647 -0.016962985 -0.03387342
-0.021381598 -0.0024324358 -0.007054362 -0.030122045 -0.028098125 -0.047171578 -0.0014511462 -0.031962637
-0.018279055 -0.046597987 -0.023809124 -0.020874096 -0.004646121 -0.0034715505 0.010910812 0.02819372
-0.014511534 0.0330611 0.016292028 0.027746713 0.00082273997 -0.02089856 0.014523157 0.033443835
0.008058234 0.01458824 0.0035612541 0.0044414545 0.012154072 -0.049490266 -0.025933575 -0.025070168
-0.044194434 -0.11707233 -0.0631388 -0.08561363 -0.10515177 -0.06523803 -0.02113754 -0.011764363
-0.0035472661 0.016782213 0.024163237 -0.007973146 -0.003853992 0.01640392 0.013781891 0.0064874208
0.0008317914 0.0047046174 0.025481535 -0.00649829 -0.025982313 -0.017102351 0.017757194 -0.003200642
-0.059930667 -0.0635167 -0.044951826 -0.08445016 -0.092162 -0.052459855 -0.03220676 -0.044430234
-0.03437047 -0.05341219 -0.06532337 -0.014343506 -0.013509347 0.032417614 0.04174883 0.054204103
-0.018835181 -0.01716974 0.0031748055 0.028541839 0.017003864 0.014912495 -0.026541939 0.02345241
-0.01752555 -0.03366185 -0.003561732 0.0054883338 -0.02677742 -0.07007058 -0.08128496 -0.07342027
-0.021808341 -0.06660983 -0.0066412655 -0.029580435 -0.035325408 -0.008164801 0.023286724 0.0301707
0.06375336 0.041104134 0.05156817 0.016475676 -0.0053275498 0.00809169 -0.018981764 0.00010059927
0.033275947 0.016013557 -0.009537042 -0.030838797 -0.025676684 0.020121947 -0.018434973 0.00082602754
-0.068076305 -0.09435571 -0.06310451 -0.08487734 -0.0297214 -0.06280946 -0.06837922 -0.0028186475
-0.016086802 -0.04496753 -0.013576829 0.016675761 0.0830676 0.06622715 0.07218456 0.07447818
0.061802417 -0.022399826 0.0011047948 0.012239893 -0.015562229 -0.016767193 -0.029389804 -0.011372834
0.020076338 0.0072940397 -0.032347653 -0.027839283 -0.06860204 -0.04457207 -0.013613692 -0.07743216
-0.098405465 -0.002343702 -0.048184283 -0.0058305264 0.03335661 0.047468413 0.047841802 0.033794526
0.0075806873 0.07298948 0.08683277 0.10678653 0.06802738 0.04232106 0.0077777263 0.025263976
-0.011197339 -0.023232032 0.004047795 -0.018678473 0.0052915355 -0.036296166 -0.013158189 -0.022021545
-0.10708459 -0.03384237 -0.060179036 -0.0321091 0.020018801 0.07148187 0.058826406 0.06397827
0.09004764 0.0823109 0.04442495 0.043851696 0.007881921 0.0010913851 -0.010968967 0.0614167
0.021030026 -0.008702087 0.023648128 -0.012270364 0.034207243 0.013549895 -0.033631857 -0.008873146

bias f4 [32]
00000000: 7a94 72bd 64ad e13b 9818 fcbd 3e1e 883e
00000010: 535a ab3e c11c 8fbe 10fe 9b3e e3a1 febb
00000020: 0d50 02be 1b3b 073d ae7f cc3d 7913 7dbe
00000030: b478 cebd 96d1 b93d 3874 9a3c ca3a 0c3e
00000040: ab0d 64bd 0bbb 7dbd 1916 1d3d 744f 093c
00000050: 005c f43d ad59 273e 83b0 2d3e 2a1e a3bd
00000060: 3cd0 4ebe 9c00 b2bd 82b3 0b3e 115a 773e
00000070: 3c7b 47bd 38b1 7d3d 2ddd 3bbd 3c31 013e
-0.05922363 0.006887125 -0.123093784 0.26585573 0.3346735 -0.27951625 0.30467272 -0.0077707632
-0.1272585 0.03301535 0.099852905 -0.2471446 -0.10081616 0.090731785 0.018854246 0.13694301
-0.055677097 -0.061945956 0.038351152 0.0083807595 0.1193161 0.16342802 0.16961865 -0.07964738
-0.20196623 -0.086915225 0.13642696 0.24155451 -0.04870151 0.061936587 -0.045865227 0.12616438

weight f4 [10, 32]
00000000: 925b 3e3e 822f 5cbf 5efd 113f 40a3 16bf
00000010: 12f7 953e 38a6 dbbd 50ea 87be 3777 f93e
00000020: 47b4 d93d 9ad3 cebe bf81 cebe 50c1 d53e
00000030: d096 20bf 960a cdbc 7a34 21be 2001 163e
00000040: 929d fe3d 826a f43e 0d17 9d3e c52a 66be
00000050: 5310 bcbd f843 39bf 96c6 90bd 8a92 9abe
00000060: f314 193f 37c3 20be fb64 213e 7381 cdbc
00000070: 310f 293f dfcb 1abe 1e16 123f 5417 6f3e
00000080: 81b8 ee3d d12b c2be 2ae2 8cbe 378e 5f3f
00000090: 8d5d 1fbf f27b b53e d469 a0bd cc27 32bf
000000a0: c168 a3be 9bc2 cb3e 77dc 4cbe f856 28bf
000000b0: c49e fabe dd5f ad3e 15e4 30be 3bb6 453d
000000c0: 898d 5d3e f9fa 213e f2cf 09be 6bb7 93be
000000d0: 3325 123f 94b2 163f 5452 93be 2ca4 2f3f
000000e0: e906 27bf a485 9abc ddef 4e3e 2235 3fbf
000000f0: 7177 193e f62a 853e 2255 c8be cf0d 66be
00000100: a81f 25bf e7cf 02bf 8d09 113f f10e 62bf
00000110: 15f9 2a3f e1f8 bf3e 7f23 2dbf 1c47 e8be
00000120: 3aa8 813e c5e7 fa3e cb12 123e ecba b5be
00000130: 9d48 17bb 2b7c e8be c247 c43d b1fa 8abc
00000140: 4094 3bbd 2118 14bf 8dba d8bd c73c 843f
00000150: 0e9e 353e 753e 7b3e 4404 0fbf c69d 243e
00000160: 4299 423f 530d c73d 2d12 f53e d21a d0be
00000170: 72a3 0a3f bf80 7b3e 1a4f 533f 4645 ee3d
00000180: f040 96be 5727 6a3f 7690 89be c64c 38be
00000190: 072c 51bd cb07 f83e 05bc a9be 392d f9bd
000001a0: c0ff ce3e 1c59 ad3e b742 083f e6a1 443f
000001b0: bd0c f53e 7bec fcbe 6f24 c03e e9d4 7fbe
000001c0: 2a5e 193e b095 a13e ee22 acbe 1e11 3ebe
000001d0: 36c9 95be d3c9 07be 2a21 67be 42fa 153f
000001e0: 5dc8 e03e 67e3 b3be 0192 883e 47c1 84bf
000001f0: 3842 3abe ac00 e13e bcd3 ccbe ade3 193f
00000200: e960 073f 657c 3a3f 4a33 153f a9de 833e
00000210: 0b53 10bf 6126 11bf 451b c7bd 3852 4ebb
00000220: 2979 05bf 37ff 1fbf a81b 5a3e 7ee5 05bf
00000230: 294b 083f b823 823e 668e 85be dced f9be
00000240: 9ea6 d13e 7c69 ecbd fabd 8fbe 5fb7 cb3e
00000250: 2228 0dbf 0de5 b6be 212d cf3e f645 1e3f
00000260: 5052 81bf 7c62 5b3e d250 bb3e 5f7c de3e
00000270: fd46 56bf 38b7 84be e130 ff3d e46c 1abf
00000280: bd68 92bd efff 7d3f a466 3ebf f003 723e
00000290: a04d 083f a259 02bf fd5f 963e 9b67 4fbd
000002a0: f35d 42be 8845 e1bc 06ba 543f 5018 2e3e
000002b0: 6e84 47bd 91da b6bd 8c52 c0bd 5752 7d3f
000002c0: 9dbb 83bf ff98 3abd bf8a 813b f0d6 11be
000002d0: a723 8e3f 7c1f b03c 1940 083f 0e70 8bbf
000002e0: d6ce febd b68a 13bf dc84 b1be 727f 1d3e
000002f0: 1f70 d63e c6fd ce3e ad89 fabb 7007 bf3e
00000300: 4a2b 9e3d 1f96 08bf 0920 393e 031c 00be
00000310: dd68 68bf 59a7 a6bc d69a 0cbf d903 803d
00000320: 02ad e03c 1307 343f 00c1 11bf 8699 c23d
00000330: 63ff 88be d17c 21be 9482 56be 0215 cebe
00000340: 26f3 17bf 2dd7 033f 673c bfbd a127 043f
00000350: d340 793e 2d50 db3e 4746 203f 523e dcbe
00000360: bae5 3ebf 0fcc 08bf 66d8 563e 7c43 473f
00000370: d6b0 793e 6864 573e d5b7 043e 10bf ecbe
00000380: 84ed c2be 827b f9be 0a7e 8abe 3692 22bf
00000390: 9e6f 883f 5a70 1fbf e5e8 0f3f 0a9f 813e
000003a0: b074 86bb 8046 813f 8015 bbbe b775 13bf
000003b0: e685 9dbc 0ca5 083f a533 84bd aed7 72be
000003c0: d300 223f 7245 27be 36fc bdbd 0446 2ebf
000003d0: 0c90 3bbe 47ed f8be 5854 a3be 3fd1 383e
000003e0: 48ad 673e b02c 493e 9374 2a3f ad00 433e
000003f0: 8289 0cbf 01ed e4be 8242 20bf f7ab 153f
0.18589619 -0.8600999 0.5702723 -0.5884285 0.29290062 -0.10725063 -0.26545954 0.48723766
0.10630088 -0.40395814 -0.40333363 0.41749048 -0.6273012 -0.025029462 -0.15742674 0.14648867
0.12432398 0.4773751 0.3068165 -0.22477253 -0.09182801 -0.7236934 -0.07069127 -0.30189925
0.5979759 -0.15699469 0.15761177 -0.02508614 0.66038805 -0.15116833 0.57065 0.23348743
0.11656285 -0.37924054 -0.275163 0.8732638 -0.6225212 0.35446125 -0.07832685 -0.69591975
-0.31915858 0.3979691 -0.20005976 -0.65757704 -0.48949254 0.338622 -0.17274506 0.04826949
0.21636023 0.15818395 -0.13458231 -0.28850874 0.5708801 0.5886624 -0.2877375 0.6860988
-0.6524492 -0.018862553 0.20208688 -0.7469045 0.1498697 0.2600934 -0.3912745 -0.22466205
-0.6450143 -0.51098484 0.566552 -0.8830405 0.6678632 0.37494567 -0.6763229 -0.45366752
0.2532366 0.4900495 0.14264981 -0.35494173 -0.0023084052 -0.45407233 0.09583999 -0.016965242
-0.04579568 -0.5784932 -0.10582457 1.0331048 0.17736074 0.24535544 -0.55865884 0.16075811
0.760151 0.09719338 0.4786543 -0.40645462 0.5415565 0.24560831 0.82542574 0.116343066
-0.29346418 0.9146628 -0.26868027 -0.17998037 -0.05106738 0.48443446 -0.3315126 -0.12166829
0.40429497 0.33857048 0.532268 0.7680954 0.4786128 -0.4939917 0.37527797 -0.24983563
0.14977327 0.31559515 -0.336204 -0.18561217 -0.29255074 -0.13260584 -0.22571245 0.5858499
0.43902865 -0.35134432 0.26673892 -1.0371484 -0.18189323 0.43945825 -0.4000529 0.6011303
0.5288225 0.7284606 0.58281386 0.25755814 -0.56376714 -0.56699187 -0.09721998 -0.0031482112
-0.52138 -0.624988 0.21299613 -0.523033 0.53239685 0.25417876 -0.26085204 -0.48814285
0.4094743 -0.11543557 -0.28074628 0.3978834 -0.5513936 -0.35721627 0.40464118 0.618255
-1.0103245 0.21424288 0.36585099 0.43454263 -0.8370207 -0.25921035 0.12460495 -0.60322404
-0.071488835 0.9921865 -0.7437537 0.23634315 0.53243446 -0.5091802 0.29370108 -0.050635915
-0.18981151 -0.027498975 0.8309635 0.17001462 -0.04871028 -0.08928407 -0.093907446 0.98953766
-1.029163 -0.045556065 0.0039533074 -0.14242148 1.110463 0.021499388 0.53222805 -1.0893571
-0.124417946 -0.5763353 -0.34671676 0.15380648 0.41882417 0.4042799 -0.0076458068 0.37310362
0.077231005 -0.53354067 0.18078627 -0.12510686 -0.9078501 -0.02034347 -0.5492376 0.06250734
0.027426247 0.70323294 -0.5693512 0.095019385 -0.26757345 -0.1577027 -0.20948249 -0.40250403
-0.5935539 0.5150021 -0.09337693 0.5162297 0.24341135 0.42834607 0.62607235 -0.43016297
-0.74569285 -0.5343637 0.20980987 0.7783735 0.24383864 0.21034396 0.12960751 -0.4623952
-0.38071835 -0.4872704 -0.27049285 -0.6350435 1.0659063 -0.6228081 0.56214744 0.2531665
-0.0041032657 1.009964 -0.3653984 -0.57601494 -0.019228887 0.5337684 -0.06455163 -0.23715088
0.6328251 -0.16335085 -0.09276621 -0.68075585 -0.18316668 -0.48618528 -0.31900287 0.18048571
0.22624695 0.19645953 0.6658413 0.19043227 -0.5489732 -0.4471207 -0.6260148 0.5846552

bias f4 [10]
00000000: d6a6 d1be c090 ad3e 3a4c 033c 4238 30be
00000010: fe71 c63c 5692 933e 5934 97bd 9899 d43e
00000020: 34d8 e2be 3d10 cdbd
-0.40947598 0.33899498 0.008013779 -0.1720896 0.024224278 0.28822583 -0.073830314 0.41523433
-0.44305575 -0.10012863
