backendModels/trained_models/digitLinearModel.pth (torch, 104067 bytes, 4 tensors)

weight f4 [32, 784]
000000 6e 56 20 3c 03 ed f3 3c ee 75 b4 3b fc f7 43 bc
       0.009786231 0.029776102 0.0055072224 -0.01196098
000010 0a 57 39 3c 0c 7f 0a bd 0e 68 46 3c aa 0f 68 3c
       0.011312256 -0.033812568 0.0121097695 0.014163891
000020 0a 4f cf bb bc cb a5 bc 25 4b 9c ba 3c 43 dd bc
       -0.006326561 -0.02023875 -0.001192425 -0.027009599
000030 fb bb 0b bd 2e 64 78 bc 27 23 d8 bc e7 6e bb bc
       -0.03411482 -0.015160603 -0.02638395 -0.02288003
000040 53 12 41 bc 93 54 f0 b8 4e 6e 0b bc 3c 36 3b bc
       -0.011784154 -0.00011459845 -0.008510185 -0.011426505
000050 27 4e d3 bc 0e 7e ea bc ae 53 ec bb 01 9c bf 3b
       -0.025794102 -0.02862456 -0.007212124 0.0058474545
000060 4a 70 8d 3a 13 a0 ad bb fa 07 89 3c 3e cb 00 bd
       0.0010790911 -0.0052986233 0.016727436 -0.031443827
000070 3f e8 0b 3d 25 f6 c1 bc e5 de 0b 3d 6e 75 c0 3a
       0.034157034 -0.023676941 0.034148116 0.0014683434
000080 c1 92 78 b8 55 12 c5 3c 52 37 09 3d f9 9c 57 bc
       -5.9264483e-05 0.024056593 0.033500023 -0.013159984
000090 eb 66 9d bb 93 43 b1 bc a7 d0 51 3c 12 a7 a8 3c
       -0.0048035285 -0.021638667 0.012806094 0.020587478
0000a0 2c 5d 2e 3b 7f 06 9a 3c 9b 7b f7 bb b9 a5 04 bd
       0.0026605828 0.018801926 -0.0075525767 -0.032384608
0000b0 10 55 ba b8 fd bc b2 3c b2 d1 a9 bc 04 ed 18 3c
       -8.885015e-05 0.021818632 -0.020729873 0.009333853
0000c0 0c 2a 61 bc 41 fb 80 3b 9e fe 59 bc b3 8e 52 bb
       -0.013742935 0.003936202 -0.013305334 -0.0032128512
0000d0 ca 0a 2c bb 8a ba b8 3c d7 18 d1 3c da f4 9b 3c
       -0.0026251548 0.022549886 0.02552454 0.019037653
0000e0 25 01 70 3a 13 63 c9 bc 98 a4 17 bc 50 23 fc ba
       0.0009155444 -0.024583375 -0.009255551 -0.0019236598
0000f0 ae 2b f3 3c 28 63 08 bd 78 8c e1 3a e7 18 8c bc
       0.029683914 -0.033297688 0.0017208001 -0.017101718
000100 45 37 92 3c 98 4b 10 3c 08 b8 83 bc cb f0 81 3b
       0.01784862 0.008807085 -0.016078964 0.0039654723
000110 b7 d9 42 3d b6 0b 2a 3d c7 39 14 bc c9 59 91 bc
       0.04757091 0.041515075 -0.009046978 -0.017743008
000120 f8 31 55 3d f8 58 de 3c 33 6a 5f bc 84 76 98 bc
       0.052049607 0.027142033 -0.01363616 -0.0186112
000130 1d b7 9a bc 05 0b d3 3c c6 32 a6 bc 2d 3e a5 bc
       -0.018886143 0.02576209 -0.020287883 -0.02017125
000140 d5 a7 47 3b 38 66 d1 3c 5c 7c fe bb 01 59 b9 3b
       0.0030465026 0.025561437 -0.0077662896 0.005656362
000150 0e 2d 9c 3c b7 de 0c bc 0e ed dc bc d2 79 f9 bc
       0.019064452 -0.008598021 -0.026968505 -0.030453596
000160 1c ec b3 bc c6 a8 8d 3c 37 ef 05 3d ea 0d 8e 38
       -0.021963172 0.017292392 0.032698836 6.773679e-05
000170 03 0b e3 3b 92 4e 15 3d 8f a1 eb 3c 72 41 06 3d
       0.006928803 0.036451884 0.02876356 0.032777257
000180 d0 da ef ba 2c 3f 6a 3d 82 76 e5 bb 4f 5f c5 3c
       -0.0018299464 0.05718915 -0.0070026526 0.024093298
000190 79 2c c8 3c 7e 1c c3 3c c3 17 ff 3c 2b 79 b6 bb
       0.024435269 0.023817297 0.03113926 -0.0055686436
0001a0 0f 73 47 3d 7f be 3c 3d 1e a0 00 3d 67 e7 34 3a
       0.048693713 0.04608011 0.0314027 0.0006900937
0001b0 8b f6 c1 3a 89 fe f9 3b b3 e4 2f 3c 4a 93 44 bc
       0.0014798207 0.00762922 0.0107356785 -0.011998007
0001c0 65 d4 c7 3b e5 84 9c 3c 6e 38 ee 3c e5 e8 21 3c
       0.0060983174 0.019106338 0.029079642 0.009882187
0001d0 09 a7 d9 3c b4 0e 39 3c 7a c5 11 3b 0b a0 9c 3c
       0.026568906 0.011295009 0.002224295 0.019119283
0001e0 96 32 a4 bb f8 b5 20 3d 74 59 4e 3d 8b 47 42 3c
       -0.005010913 0.03923604 0.050378278 0.0118578775
0001f0 a5 21 4e 3c 85 79 2d 3d 18 8a 3a 3c f7 88 98 3c
       0.012581264 0.04235222 0.011385463 0.018619997
000200 f1 36 24 3c 04 e3 0c 3d 3e a2 6e 3c ba 43 63 3c
       0.010022865 0.034396186 0.014565049 0.013871128
000210 15 af 60 bb 4e d4 47 3c 0e db 9a 3c 00 01 0d bd
       -0.0034284045 0.0121966135 0.018903282 -0.03442478
000220 9d 86 08 3c f3 6c 80 3c 65 93 0d bd f9 99 c8 bc
       0.008332876 0.015676951 -0.034564395 -0.024487482
000230 0e 5d 45 3c 7a bf f5 3c f2 5c 07 3c 6e d3 50 b9
       0.012046112 0.02999853 0.008261906 -0.0001991519
000240 2a fe 03 3d 11 05 19 bb 8d 2a b1 bc 38 20 03 3d
       0.03222481 -0.0023348967 -0.021626735 0.032013148
000250 f5 cb a6 3b ef 0c 14 3d 7c d0 c0 3c 14 47 69 3c
       0.0050902315 0.036145147 0.023536913 0.014238138
000260 96 92 7c 3d 97 7c 66 3d e4 15 89 3d 57 e0 4a 3c
       0.061663233 0.056271162 0.066936284 0.012382588
000270 6e c0 87 3d d8 ca 02 3d 8a 2a 04 3d 1b 94 1f 3d
       0.066285 0.031931728 0.03226713 0.038959604
000280 35 0d 38 bb 4c 2c f6 3c 00 a0 8e bc 55 cc e2 bc
       -0.0028084044 0.03005042 -0.017410278 -0.027685324
000290 58 bb db bc e0 61 27 3c 12 28 c6 3c ca 48 87 3c
       -0.02682273 0.010216206 0.024189029 0.0165142
0002a0 ff 41 09 3d 04 a4 09 bd 01 f6 fc bb 1c 3a c0 3c
       0.033510204 -0.033603683 -0.0077197556 0.023465209
0002b0 17 35 ab 3c 31 75 92 3c 1b dc 99 3b 09 87 ae 3c
       0.020899339 0.017878147 0.004695428 0.021304624
0002c0 df 6f 50 3d 7e 85 ee 3c 99 53 33 3c 9b 57 e4 3c
       0.05088794 0.029116388 0.010945224 0.027873805
0002d0 67 9e a6 3c a5 39 f2 3c 52 80 0a 3d d9 9a 95 38
       0.020339204 0.029568503 0.033813782 7.133716e-05
0002e0 b0 de 4f 3c 6d 54 82 bb 34 14 9e 3c 40 72 09 bd
       0.01268737 -0.0039773495 0.019296743 -0.033556223
0002f0 1c 8c 83 3a bb 84 8f bc 08 a8 85 bc 5d 76 27 bc
       0.0010036263 -0.017519346 -0.016315475 -0.010221091
000300 33 e4 b2 bc 3d ab 3c bd 87 fb 6a 3b b0 d1 c0 bb
       -0.02183733 -0.046061743 0.0035855488 -0.0058843717
000310 f1 5c f9 bc b0 00 e1 3c 00 35 5f bc 7a 55 8c bc
       -0.030439826 0.027466148 -0.013623476 -0.017130602
000320 02 9d 7c 3c 46 5e 58 3b d1 bc b6 bc 9d cc 22 3d
       0.015418293 0.0033015176 -0.022306832 0.039745916
000330 ff e7 6c bb 47 70 fc bb c1 5e 70 bc 68 0c 72 bc
       -0.0036149023 -0.007703814 -0.014671029 -0.014773466
000340 38 29 bc bb ba 8f 79 bb 8a 8c 01 bd 4f 79 87 bc
       -0.0057422183 -0.0038080052 -0.03162817 -0.016537337
000350 8d 73 28 bc d6 64 16 bd ec 86 cb bc 63 84 8c bd
       -0.010281456 -0.03671726 -0.02484461 -0.06861188
000360 f3 96 94 bc e4 0c 48 bd 41 04 47 bd b1 65 9b bc
       -0.018138384 -0.04884042 -0.04858804 -0.018969389
000370 96 63 f1 bc 23 23 3a bc 90 43 cd 3c eb db 09 bd
       -0.029466432 -0.011360916 0.02505663 -0.033656996
000380 59 2c af bc 5a 41 d7 3c 77 8b b1 bb 84 04 a4 3c
       -0.021383451 0.02627628 -0.005418237 0.020021684
000390 b7 2e 38 3c 81 42 af 3c f4 b8 cf 3c 5f 64 21 bc
       0.011241606 0.021394016 0.025356747 -0.0098505905
0003a0 76 79 bb 3c 89 2f 95 3b e7 1e 20 3d ef 1a 2e bd
       0.022885066 0.004552786 0.03909197 -0.042506155
0003b0 c3 48 a1 bc 27 25 17 3b 08 b8 c2 bc ba f6 0c bc
       -0.019688016 0.0023062916 -0.023769394 -0.008603746
0003c0 b2 76 3a bd 14 db 0a bd cb 0b 58 bd d4 2d 35 bd
       -0.045523353 -0.033900335 -0.05274562 -0.04423316
0003d0 3a d2 1b bd c5 7c 41 bd 2c 90 43 bd 1b 09 89 bd
       -0.038042285 -0.04723813 -0.047744915 -0.0669119
0003e0 c4 68 bb bd 1e 16 3d bd fd d1 c7 bc b3 38 f2 bc
       -0.09150842 -0.04616367 -0.024392122 -0.029568052
0003f0 24 d3 f7 bb 7b 15 dd 3b 51 0c 53 3b 35 70 cb 3c
       -0.0075630117 0.0067469454 0.0032203386 0.024833778

bias f4 [32]
000000 89 9c e3 bd 78 bf b0 3c 8e e7 18 3e a2 f2 3b 3d
       -0.11113841 0.021575674 0.14932081 0.04588569
000010 07 ec af 3d 0a 74 cf bd 0d 16 15 bd 31 14 fa 3d
       0.085899405 -0.101295546 -0.036397982 0.122108825
000020 fc 73 4f 3d 75 22 f3 3d b1 05 68 bd bb e0 29 bd
       0.05064772 0.118718065 -0.056646053 -0.041474085
000030 a9 84 79 bd 50 28 1b bb c2 f6 a2 3d 46 2f 27 3e
       -0.06091753 -0.0023675151 0.079572216 0.16326627
000040 fb a3 7b 3e f7 18 53 3d 60 ea 2f 3d e2 e1 77 3c
       0.24574272 0.05153748 0.042948127 0.015129538
000050 7a 81 07 3e 13 ef e0 3c 76 bb 56 bd 48 53 d5 bc
       0.13232985 0.02745775 -0.05242487 -0.026040688
000060 b6 6b f8 3d 25 fa 34 bd dd f0 37 3d 9e b8 f4 3d
       0.12129919 -0.04418387 0.04490744 0.119492754
000070 4a 9b 53 bd 01 a5 0a 3e 34 db 5d 3e b1 6b d2 bc
       -0.051661767 0.13539506 0.2166565 -0.025686117

weight f4 [10, 32]
000000 5b 32 7d be 67 4e e8 be f8 0b fd 3d 4b 7f 8a be
       -0.2472624 -0.45372316 0.123557985 -0.27050242
000010 f5 94 eb be e4 ce e8 bd ef 3f b9 3e 90 f0 8a 3e
       -0.46012083 -0.11367586 0.3618159 0.2713666
000020 85 6c b5 3e f7 08 21 3e e2 94 7f be ea af 8d 3e
       0.35434356 0.15726076 -0.24959138 0.27673274
000030 27 99 69 be 4b 30 2d 3f 35 3d ba 3e b1 53 85 be
       -0.22812329 0.67651814 0.36374822 -0.26040414
000040 c3 82 9e be bb 5f 61 3e e6 98 17 3f ad b8 aa bd
       -0.30959138 0.22009175 0.5921768 -0.08336005
000050 f2 fa 83 be e3 57 df 3d 23 e6 94 be b5 c7 ba 3b
       -0.25777394 0.10905435 -0.2908183 0.0057000765
000060 b7 39 97 3e f1 17 e9 be 15 ca 98 bd 8f 3f 53 bc
       0.2953622 -0.45526078 -0.07460419 -0.0128935715
000070 e6 43 60 be 40 e0 f7 be e1 f1 bc be 31 d3 0b 3e
       -0.21900901 -0.48413277 -0.3690329 0.13654782
000080 94 0c 57 be c8 ed 10 3e f1 c7 69 bc 5c 7f b1 be
       -0.21000892 0.14153206 -0.014268861 -0.3466748
000090 88 57 0c 3f c3 25 7e be 31 3f 25 bf 31 9e ef 3d
       0.5482106 -0.24819092 -0.6454955 0.117000945
0000a0 73 8c 40 3e 35 a8 8d bd d0 cb 88 bd f2 33 30 3e
       0.18803577 -0.069168486 -0.06679499 0.17207316
0000b0 f8 38 6b ba a6 43 99 bb dd ad 81 bd 94 52 e4 3d
       -0.00089730276 -0.004677254 -0.0633199 0.11148563
0000c0 d0 00 1c be 36 09 95 be dd 88 a0 be 3a 58 a8 3e
       -0.15234685 -0.2910859 -0.31354418 0.32879812
0000d0 dd 28 0f be 6b 72 01 bf 92 f2 e6 3d 5d f0 fb be
       -0.13980432 -0.5056521 0.11276735 -0.4920682
0000e0 5e b5 17 be 16 5a 5c 3d da 7a 28 3f 9c da 13 3e
       -0.1481528 0.05379685 0.65812457 0.14438862
0000f0 fa 90 5a bd 04 79 a6 3e 9d f9 0e 3f 59 97 56 be
       -0.053360917 0.32514203 0.5584963 -0.20956172
000100 82 80 d1 3e 8b aa 2e 3f d5 69 56 bc 10 2b 8e 3e
       0.40918356 0.6822898 -0.013086756 0.2776723
000110 73 86 4b bd 9d 89 b9 bd 6a 30 56 3e ce 36 b0 bd
       -0.049688768 -0.09059451 0.20916906 -0.08604203
000120 23 aa ba 3c d4 29 b1 3e c0 fe aa 3d b0 e5 e8 3e
       0.022786206 0.34602225 0.08349371 0.45487738
000130 5f 6b 4b be c8 fa 74 3e 2c 06 ef be 59 7f 8a be
       -0.19865178 0.2392379 -0.46684396 -0.27050284
000140 d4 ae 06 be e9 0f 59 3e c0 4d 27 be a4 66 12 3f
       -0.13152629 0.21197475 -0.16338253 0.5718787
000150 3b 9f 95 bd 7c d9 98 3e d9 88 40 bd 9d d2 02 bf
       -0.073057614 0.29853427 -0.047005508 -0.5110262
000160 e0 fc 0a bf c9 a0 af be 9d d0 6c be 04 d5 f8 3c
       -0.54292107 -0.34302357 -0.23126455 0.030375011
000170 75 49 0f 3e a4 33 9c bc bf a7 05 bf bf 3e d1 3d
       0.13992865 -0.019067593 -0.52209085 0.10217046
000180 25 4b 9d be f7 84 8a be d8 57 9e 3d 0e c3 8a be
       -0.30721393 -0.2705457 0.077315986 -0.2710194
000190 87 7e 64 3e 25 1d df 3c 06 f3 73 3e 71 cf 2b 3f
       0.22313891 0.027235577 0.23823175 0.67113405
0001a0 99 7d b9 be 66 1f 6d bd cb 35 f8 bc 9e ff af bd
       -0.36228636 -0.057891272 -0.030299088 -0.08593677
0001b0 05 67 e8 bd ce a5 ca be b0 e1 0b bf 85 7e d0 3e
       -0.113477744 -0.39579624 -0.54641247 0.40721527
0001c0 a8 27 65 3d ae 34 57 bd 41 f8 22 3e 3a 34 d5 3e
       0.055946022 -0.052540474 0.15915014 0.41641408
0001d0 0b ec 59 be b6 2a b3 3e a2 c7 ae be de dd 49 3e
       -0.2128145 0.34993523 -0.34136683 0.19713542
0001e0 0c b9 ff be 75 4e c7 3e 07 e7 49 3d d9 5f 8a 3e
       -0.49945867 0.38927045 0.04929259 0.2702625
0001f0 18 27 bd 3e 93 77 da 3a a1 26 01 bf 95 f8 6d bc
       0.3694389 0.0016667716 -0.5044957 -0.014524599
000200 ed 76 2f 3e 79 05 1a be 06 3c a2 bd 8c ba 3d 3f
       0.1713521 -0.1504115 -0.07921605 0.7411277
000210 3c 45 d2 3e 8c 8a 09 3c c8 10 ca bc c6 87 01 bf
       0.41068447 0.008394849 -0.024666205 -0.505978
000220 c9 34 60 be a4 e3 b7 3e 6c d9 9b 3e 77 52 54 be
       -0.21895136 0.35915864 0.30439317 -0.20734583
000230 6b 83 b3 3e 3d d0 30 3c 52 d8 fb 3d 68 90 99 3e
       0.350612 0.010791835 0.12297119 0.29992986
000240 cc 6d c1 3e 37 55 62 3e f4 01 c8 be 31 56 28 bf
       0.3777908 0.2210282 -0.3906399 -0.6575652
000250 a0 ad 85 be fd 34 28 3e 10 1f 86 be bc df 57 3e
       -0.26109028 0.16426463 -0.26195574 0.21081442
000260 0e 75 d6 3e 56 f7 6e 3c 86 ac 39 bd 19 d1 11 bf
       0.4188618 0.014585337 -0.045330547 -0.5695968
000270 e5 0f 78 be 1f 8d 97 be c0 ef 09 3e 43 24 96 3e
       -0.24224813 -0.29599854 0.13470364 0.2932454
000280 7c f3 f7 be 78 bf 97 3d 6f 3c a7 be e4 78 65 be
       -0.4842795 0.07409567 -0.32663295 -0.22409397
000290 59 48 12 be 19 e7 71 be 88 36 64 3e 31 a2 2a be
       -0.14285411 -0.23623313 0.22286427 -0.16663434
0002a0 02 5d 39 be c5 1b c4 3e dd bd 69 be 39 9e b2 be
       -0.18101886 0.38302436 -0.22826333 -0.3488634
0002b0 4e ff 3d be b1 ee 9a be e2 10 27 3f 7b b8 19 3e
       -0.18554422 -0.30260232 0.65260136 0.1501178
0002c0 d6 8b 9e 3e f8 30 f4 bd 3a ff 74 3e 62 f6 21 3e
       0.3096606 -0.119234025 0.23925486 0.15816644
0002d0 6b 7e 0a 3f 16 e7 e7 3d ec 4e 85 be 48 c2 62 3e
       0.5409915 0.11323373 -0.26036775 0.22144425
0002e0 0b 25 8f 3e 7a d8 23 bc bc 53 07 bf 07 6f 98 3e
       0.2795795 -0.0100003425 -0.52862144 0.29772207
0002f0 3e 49 0b 3d 02 64 79 be 75 06 fe 3e 61 f3 c9 3d
       0.034005396 -0.24354556 0.496143 0.09860874
000300 88 7f 08 3f 82 54 d2 bd 97 cf c4 be f3 02 0d 3f
       0.533196 -0.10270025 -0.38439628 0.55082625
000310 36 7a 8b be c8 65 8d 3e 89 9b d2 bd 18 40 cd be
       -0.27241677 0.27616715 -0.10283572 -0.40087962
000320 48 c3 bc bd 78 5c 36 be 6b b4 7c bd dc dd f6 3e
       -0.092169344 -0.17808712 -0.061695497 0.4821614
000330 31 f4 81 3e c3 08 0f 3e 0a a5 0b 3f 56 dc c6 bd
       0.25381616 0.13968186 0.54548705 -0.097099945
000340 e3 b3 db be 4b 72 9d be fa 00 a6 bd b7 7d 01 bf
       -0.4291068 -0.3075126 -0.08105655 -0.5058245
000350 89 70 f1 3d f4 fc 6c 3e 40 76 04 bf b3 a6 01 bf
       0.117890425 0.23143369 -0.51742935 -0.5064499
000360 75 0e 3f 3e 84 e8 7e 3d 28 6f b1 3d b0 52 0d 3f
       0.18657859 0.062233463 0.086637795 0.55204296
000370 01 38 b9 bd 62 32 b2 3d 9a 9c 21 be 99 93 bc 3d
       -0.09043885 0.08701016 -0.15782395 0.092078395
000380 42 0b 83 be f4 eb ac 3e bb b8 52 3f 01 62 df bd
       -0.25594527 0.33773768 0.82313126 -0.10907365
000390 25 9f fd be ca b9 8e 3e fc bd 17 be 40 e8 dc 3e
       -0.4953548 0.2787612 -0.14818567 0.43145943
0003a0 b7 2d 8f 3e f8 af 53 be 2e 51 9b bd ed 6c 20 be
       0.27964565 -0.20672596 -0.07583843 -0.15666552
0003b0 19 98 cd bd b4 2a 35 be 09 04 fb be af e6 bc bc
       -0.10038776 -0.17692071 -0.49026516 -0.023059217
0003c0 ca 9c 16 3f 10 8f 63 3e 77 d9 62 3c 5e 24 08 bf
       0.5883299 0.22222543 0.013845793 -0.5318049
0003d0 d6 d6 b0 3d b4 b7 2c be e1 1d 97 3e 65 f6 cf 3e
       0.08634727 -0.16866952 0.29514983 0.40617672
0003e0 5a 8a 0f bc cb 31 94 be ef c8 89 3e c5 50 e0 be
       -0.008761013 -0.2894424 0.26911113 -0.43811622
0003f0 d9 de 9f be 91 c1 ae 3e ff 87 0d be f7 80 af be
       -0.31224707 0.34132054 -0.1382141 -0.3427808

bias f4 [10]
000000 a6 71 1b be ef a3 89 bd 24 cc f5 3d 42 5d 06 be
       -0.15180072 -0.06720721 0.12001827 -0.13121513
000010 f6 52 27 bc 6e a6 25 3e 22 4b e2 bd 33 ab 63 3e
       -0.0102126505 0.16176769 -0.11049487 0.22233276
000020 00 55 c2 be 57 38 91 bd
       -0.37955475 -0.07090824
